…
    "    # Faster, but less random: only permutes along the first dimension\n",
    "    # weights = [np.random.permutation(w) for w in weights]\n",
    "    model.set_weights(weights)"
   ]
  },
  {
   "cell_type": "code",
   "execution_count": 26,
   "metadata": {},
   "outputs": [
    {
     "name": "stdout",
     "output_type": "stream",
     "text": [
      "_________________________________________________________________\n",
      "Layer (type)                 Output Shape              Param #   \n",
      "=================================================================\n",
      "input_3 (InputLayer)         (None, 80, 3)             0         \n",
      "_________________________________________________________________\n",
      "conv1d_9 (Conv1D)            (None, 71, 100)           3100      \n",
      "_________________________________________________________________\n",
      "conv1d_10 (Conv1D)           (None, 62, 100)           100100    \n",
      "_________________________________________________________________\n",
      "max_pooling1d_3 (MaxPooling1 (None, 20, 100)           0         \n",
      "_________________________________________________________________\n",
      "conv1d_11 (Conv1D)           (None, 11, 160)           160160    \n",
      "_________________________________________________________________\n",
      "conv1d_12 (Conv1D)           (None, 2, 160)            256160    \n",
      "_________________________________________________________________\n",
      "global_average_pooling1d_3 ( (None, 160)               0         \n",
      "_________________________________________________________________\n",
      "dropout_3 (Dropout)          (None, 160)               0         \n",
      "_________________________________________________________________\n",
      "dense_2 (Dense)              (None, 6)                 966       \n",
      "=================================================================\n",
      "Total params: 520,486\n",
      "Trainable params: 520,486\n",
      "Non-trainable params: 0\n",
      "_________________________________________________________________\n",
      "None\n"
     ]
    }
   ],
   "source": [
    "import keras\n",
    "from keras.layers import Input,Conv1D, MaxPooling1D,GlobalAveragePooling1D,Dropout,Dense\n",
…
